…
I1008 20:44:48.808146 31575 solver.cpp:67] Creating training net from net file: .arch_train_val_split.prototxt
I1008 20:44:48.808734 31575 net.cpp:39] Initializing net from parameters: 
name: "CaffeNet"
layers {
  top: "data"
  top: "label"
  name: "data"
  type: DATUM_DATA
  transform_param {
    mirror: true
    crop_size: 41
    rotate: true
  }
  datum_data_param {
    source: "/home/lein/sar_dnn/dataset/beaufort_2010_2011/batches_45/batch/source.txt"
    mean_file: "/home/lein/sar_dnn/dataset/beaufort_2010_2011/batches_45/mean_std.txt"
    batch_size: 128
    shuffle: true
    label_scale: 0.1
  }
}
layers {
  bottom: "data"
  top: "conv1_1"
  name: "conv1_1"
  type: CONVOLUTION
  blobs_lr: 1
  blobs_lr: 2
  weight_decay: 1
  weight_decay: 0
  convolution_param {
    num_output: 64
    kernel_size: 3
    weight_filler {
      type: "gaussian"
      std: 0.01
    }
    bias_filler {
      type: "constant"
      value: 0
    }
  }
}
layers {
  bottom: "conv1_1"
  top: "conv1_1"
  name: "relu1_1"
  type: RELU
}
layers {
  bottom: "conv1_1"
  top: "conv1_2"
  name: "conv1_2"
  type: CONVOLUTION
  blobs_lr: 1
  blobs_lr: 2
  weight_decay: 1
  weight_decay: 0
  convolution_param {
    num_output: 64
    kernel_size: 3
    weight_filler {
      type: "gaussian"
      std: 0.01
    }
    bias_filler {
      type: "constant"
      value: 0
    }
  }
}
layers {
  bottom: "conv1_2"
  top: "conv1_2"
  name: "relu1_2"
  type: RELU
}
layers {
  bottom: "conv1_2"
  top: "conv1_3"
  name: "conv1_3"
  type: CONVOLUTION
  blobs_lr: 1
  blobs_lr: 2
  weight_decay: 1
  weight_decay: 0
  convolution_param {
    num_output: 64
    kernel_size: 3
    weight_filler {
      type: "gaussian"
      std: 0.01
    }
    bias_filler {
      type: "constant"
      value: 0
    }
  }
}
layers {
  bottom: "conv1_3"
  top: "conv1_3"
  name: "relu1_3"
  type: RELU
}
layers {
  bottom: "conv1_3"
  top: "pool1"
  name: "pool1"
  type: POOLING
  pooling_param {
    pool: MAX
    kernel_size: 2
    stride: 2
  }
}
layers {
  bottom: "pool1"
  top: "conv2_1"
  name: "conv2_1"
  type: CONVOLUTION
  blobs_lr: 1
  blobs_lr: 2
  weight_decay: 1
  weight_decay: 0
  convolution_param {
    num_output: 128
    kernel_size: 3
    weight_filler {
      type: "gaussian"
      std: 0.01
    }
    bias_filler {
      type: "constant"
      value: 1
    }
  }
}
layers {
  bottom: "conv2_1"
  top: "conv2_1"
  name: "relu2_1"
  type: RELU
}
layers {
  bottom: "conv2_1"
  top: "conv2_2"
  name: "conv2_2"
  type: CONVOLUTION
  blobs_lr: 1
  blobs_lr: 2
  weight_decay: 1
  weight_decay: 0
  convolution_param {
    num_output: 128
    kernel_size: 3
    weight_filler {
      type: "gaussian"
      std: 0.01
    }
    bias_filler {
      type: "constant"
      value: 1
    }
  }
}
layers {
  bottom: "conv2_2"
  top: "conv2_2"
  name: "relu2_2"
  type: RELU
}
layers {
  bottom: "conv2_2"
  top: "conv2_3"
  name: "conv2_3"
  type: CONVOLUTION
  blobs_lr: 1
  blobs_lr: 2
  weight_decay: 1
  weight_decay: 0
  convolution_param {
    num_output: 128
    kernel_size: 3
    weight_filler {
      type: "gaussian"
      std: 0.01
    }
    bias_filler {
      type: "constant"
      value: 1
    }
  }
}
layers {
  bottom: "conv2_3"
  top: "conv2_3"
  name: "relu2_3"
  type: RELU
}
layers {
  bottom: "conv2_3"
  top: "pool2"
  name: "pool2"
  type: POOLING
  pooling_param {
    pool: MAX
    kernel_size: 2
    stride: 2
  }
}
layers {
  bottom: "pool2"
  top: "conv3"
  name: "conv3"
  type: CONVOLUTION
  blobs_lr: 1
  blobs_lr: 2
  weight_decay: 1
  weight_decay: 0
  convolution_param {
    num_output: 256
    pad: 1
    kernel_size: 3
    weight_filler {
      type: "gaussian"
      std: 0.01
    }
    bias_filler {
      type: "constant"
      value: 0
    }
  }
}
layers {
  bottom: "conv3"
  top: "conv3"
  name: "relu3"
  type: RELU
}
layers {
  bottom: "conv3"
  top: "fc4"
  name: "fc4"
  type: INNER_PRODUCT
  blobs_lr: 1
  blobs_lr: 2
  weight_decay: 1
  weight_decay: 0
  inner_product_param {
    num_output: 1024
    weight_filler {
      type: "gaussian"
      std: 0.0005
    }
    bias_filler {
      type: "constant"
      value: 1
    }
  }
}
layers {
  bottom: "fc4"
  top: "fc4"
  name: "relu4"
  type: RELU
}
layers {
  bottom: "fc4"
  top: "fc4"
  name: "drop4"
  type: DROPOUT
  dropout_param {
    dropout_ratio: 0.5
  }
}
layers {
  bottom: "fc4"
  top: "fc5"
  name: "fc5"
  type: INNER_PRODUCT
  blobs_lr: 1
  blobs_lr: 2
  weight_decay: 1
  weight_decay: 0
  inner_product_param {
    num_output: 1
    weight_filler {
      type: "gaussian"
      std: 0.0005
    }
    bias_filler {
      type: "constant"
      value: 1
    }
  }
}
layers {
  bottom: "fc5"
  bottom: "label"
  top: "loss"
  name: "loss"
  type: EUCLIDEAN_LOSS
}
state {
  phase: TRAIN
}
I1008 20:44:48.808909 31575 net.cpp:56] Memory required for data: 0
I1008 20:44:48.808964 31575 net.cpp:67] Creating Layer data
I1008 20:44:48.808975 31575 net.cpp:356] data -> data
I1008 20:44:48.809001 31575 net.cpp:356] data -> label
I1008 20:44:48.809015 31575 net.cpp:96] Setting up data
I1008 20:44:48.809023 31575 datum_data_layer.cpp:38] Opening file /home/lein/sar_dnn/dataset/beaufort_2010_2011/batches_45/batch/source.txt
I1008 20:44:48.809103 31575 datum_data_layer.cpp:50] Shuffling data
I1008 20:44:48.809130 31575 datum_data_layer.cpp:55] A total of 15 images.
E1008 20:44:48.809137 31575 datum_data_layer.cpp:117] /home/lein/sar_dnn/dataset/beaufort_2010_2011/batches_45/batch/20110709.batch : 0
E1008 20:44:48.811267 31575 datum_data_layer.cpp:117] /home/lein/sar_dnn/dataset/beaufort_2010_2011/batches_45/batch/20100822.batch : 1
I1008 20:44:48.860275 31575 datum_data_layer.cpp:77] output data size: 128,2,41,41
E1008 20:44:48.860359 31575 datum_data_layer.cpp:96] channel 0 : mean 0 std 0.00392157
E1008 20:44:48.860405 31575 datum_data_layer.cpp:96] channel 1 : mean 0 std 0.00392157
I1008 20:44:48.860860 31575 base_data_layer.cpp:64] Initializing prefetch
I1008 20:44:48.861578 31575 base_data_layer.cpp:66] Prefetch initialized.
I1008 20:44:48.861601 31575 net.cpp:103] Top shape: 128 2 41 41 (430336)
I1008 20:44:48.861610 31575 net.cpp:103] Top shape: 128 1 1 1 (128)
I1008 20:44:48.861618 31575 net.cpp:113] Memory required for data: 1721856
I1008 20:44:48.861660 31575 net.cpp:67] Creating Layer conv1_1
I1008 20:44:48.861672 31575 net.cpp:394] conv1_1 <- data
I1008 20:44:48.861701 31575 net.cpp:356] conv1_1 -> conv1_1
I1008 20:44:48.861721 31575 net.cpp:96] Setting up conv1_1
[New Thread 0x7fffea5a1700 (LWP 31579)]
[New Thread 0x7fffe2bff700 (LWP 31580)]
[New Thread 0x7fffe1a88700 (LWP 31581)]
I1008 20:44:48.864857 31575 net.cpp:103] Top shape: 128 64 39 39 (12460032)
I1008 20:44:48.864883 31575 net.cpp:113] Memory required for data: 51561984
I1008 20:44:48.864948 31575 net.cpp:67] Creating Layer relu1_1
I1008 20:44:48.864965 31575 net.cpp:394] relu1_1 <- conv1_1
I1008 20:44:48.864987 31575 net.cpp:345] relu1_1 -> conv1_1 (in-place)
I1008 20:44:48.865001 31575 net.cpp:96] Setting up relu1_1
I1008 20:44:48.865010 31575 net.cpp:103] Top shape: 128 64 39 39 (12460032)
I1008 20:44:48.865015 31575 net.cpp:113] Memory required for data: 101402112
I1008 20:44:48.865031 31575 net.cpp:67] Creating Layer conv1_2
I1008 20:44:48.865038 31575 net.cpp:394] conv1_2 <- conv1_1
I1008 20:44:48.865056 31575 net.cpp:356] conv1_2 -> conv1_2
I1008 20:44:48.865070 31575 net.cpp:96] Setting up conv1_2
I1008 20:44:48.883224 31575 net.cpp:103] Top shape: 128 64 37 37 (11214848)
I1008 20:44:48.883265 31575 net.cpp:113] Memory required for data: 146261504
I1008 20:44:48.883323 31575 net.cpp:67] Creating Layer relu1_2
I1008 20:44:48.883334 31575 net.cpp:394] relu1_2 <- conv1_2
I1008 20:44:48.883352 31575 net.cpp:345] relu1_2 -> conv1_2 (in-place)
I1008 20:44:48.883364 31575 net.cpp:96] Setting up relu1_2
I1008 20:44:48.883371 31575 net.cpp:103] Top shape: 128 64 37 37 (11214848)
I1008 20:44:48.883376 31575 net.cpp:113] Memory required for data: 191120896
I1008 20:44:48.883390 31575 net.cpp:67] Creating Layer conv1_3
I1008 20:44:48.883397 31575 net.cpp:394] conv1_3 <- conv1_2
I1008 20:44:48.883411 31575 net.cpp:356] conv1_3 -> conv1_3
I1008 20:44:48.883435 31575 net.cpp:96] Setting up conv1_3
I1008 20:44:48.901547 31575 net.cpp:103] Top shape: 128 64 35 35 (10035200)
I1008 20:44:48.901576 31575 net.cpp:113] Memory required for data: 231261696
I1008 20:44:48.901612 31575 net.cpp:67] Creating Layer relu1_3
I1008 20:44:48.901620 31575 net.cpp:394] relu1_3 <- conv1_3
I1008 20:44:48.901634 31575 net.cpp:345] relu1_3 -> conv1_3 (in-place)
I1008 20:44:48.901646 31575 net.cpp:96] Setting up relu1_3
I1008 20:44:48.901653 31575 net.cpp:103] Top shape: 128 64 35 35 (10035200)
I1008 20:44:48.901656 31575 net.cpp:113] Memory required for data: 271402496
I1008 20:44:48.901667 31575 net.cpp:67] Creating Layer pool1
I1008 20:44:48.901674 31575 net.cpp:394] pool1 <- conv1_3
I1008 20:44:48.901684 31575 net.cpp:356] pool1 -> pool1
I1008 20:44:48.901695 31575 net.cpp:96] Setting up pool1
I1008 20:44:48.901721 31575 net.cpp:103] Top shape: 128 64 18 18 (2654208)
I1008 20:44:48.901726 31575 net.cpp:113] Memory required for data: 282019328
I1008 20:44:48.901739 31575 net.cpp:67] Creating Layer conv2_1
I1008 20:44:48.901743 31575 net.cpp:394] conv2_1 <- pool1
I1008 20:44:48.901752 31575 net.cpp:356] conv2_1 -> conv2_1
I1008 20:44:48.901760 31575 net.cpp:96] Setting up conv2_1
I1008 20:44:48.932057 31575 net.cpp:103] Top shape: 128 128 16 16 (4194304)
I1008 20:44:48.932080 31575 net.cpp:113] Memory required for data: 298796544
I1008 20:44:48.932104 31575 net.cpp:67] Creating Layer relu2_1
I1008 20:44:48.932113 31575 net.cpp:394] relu2_1 <- conv2_1
I1008 20:44:48.932128 31575 net.cpp:345] relu2_1 -> conv2_1 (in-place)
I1008 20:44:48.932139 31575 net.cpp:96] Setting up relu2_1
I1008 20:44:48.932144 31575 net.cpp:103] Top shape: 128 128 16 16 (4194304)
I1008 20:44:48.932148 31575 net.cpp:113] Memory required for data: 315573760
I1008 20:44:48.932160 31575 net.cpp:67] Creating Layer conv2_2
I1008 20:44:48.932164 31575 net.cpp:394] conv2_2 <- conv2_1
I1008 20:44:48.932175 31575 net.cpp:356] conv2_2 -> conv2_2
I1008 20:44:48.932185 31575 net.cpp:96] Setting up conv2_2
I1008 20:44:48.963001 31575 net.cpp:103] Top shape: 128 128 14 14 (3211264)
I1008 20:44:48.963024 31575 net.cpp:113] Memory required for data: 328418816
I1008 20:44:48.963057 31575 net.cpp:67] Creating Layer relu2_2
I1008 20:44:48.963065 31575 net.cpp:394] relu2_2 <- conv2_2
I1008 20:44:48.963078 31575 net.cpp:345] relu2_2 -> conv2_2 (in-place)
I1008 20:44:48.963086 31575 net.cpp:96] Setting up relu2_2
I1008 20:44:48.963093 31575 net.cpp:103] Top shape: 128 128 14 14 (3211264)
I1008 20:44:48.963095 31575 net.cpp:113] Memory required for data: 341263872
I1008 20:44:48.963106 31575 net.cpp:67] Creating Layer conv2_3
I1008 20:44:48.963111 31575 net.cpp:394] conv2_3 <- conv2_2
I1008 20:44:48.963120 31575 net.cpp:356] conv2_3 -> conv2_3
I1008 20:44:48.963132 31575 net.cpp:96] Setting up conv2_3
I1008 20:44:48.987730 31575 net.cpp:103] Top shape: 128 128 12 12 (2359296)
I1008 20:44:48.987742 31575 net.cpp:113] Memory required for data: 350701056
I1008 20:44:48.987754 31575 net.cpp:67] Creating Layer relu2_3
I1008 20:44:48.987759 31575 net.cpp:394] relu2_3 <- conv2_3
I1008 20:44:48.987769 31575 net.cpp:345] relu2_3 -> conv2_3 (in-place)
I1008 20:44:48.987777 31575 net.cpp:96] Setting up relu2_3
I1008 20:44:48.987782 31575 net.cpp:103] Top shape: 128 128 12 12 (2359296)
I1008 20:44:48.987785 31575 net.cpp:113] Memory required for data: 360138240
I1008 20:44:48.987798 31575 net.cpp:67] Creating Layer pool2
I1008 20:44:48.987803 31575 net.cpp:394] pool2 <- conv2_3
I1008 20:44:48.987812 31575 net.cpp:356] pool2 -> pool2
I1008 20:44:48.987821 31575 net.cpp:96] Setting up pool2
I1008 20:44:48.987829 31575 net.cpp:103] Top shape: 128 128 6 6 (589824)
I1008 20:44:48.987833 31575 net.cpp:113] Memory required for data: 362497536
I1008 20:44:48.987841 31575 net.cpp:67] Creating Layer conv3
I1008 20:44:48.987845 31575 net.cpp:394] conv3 <- pool2
I1008 20:44:48.987854 31575 net.cpp:356] conv3 -> conv3
I1008 20:44:48.987864 31575 net.cpp:96] Setting up conv3
I1008 20:44:49.032194 31575 net.cpp:103] Top shape: 128 256 6 6 (1179648)
I1008 20:44:49.032203 31575 net.cpp:113] Memory required for data: 367216128
I1008 20:44:49.032219 31575 net.cpp:67] Creating Layer relu3
I1008 20:44:49.032223 31575 net.cpp:394] relu3 <- conv3
I1008 20:44:49.032232 31575 net.cpp:345] relu3 -> conv3 (in-place)
I1008 20:44:49.032238 31575 net.cpp:96] Setting up relu3
I1008 20:44:49.032243 31575 net.cpp:103] Top shape: 128 256 6 6 (1179648)
I1008 20:44:49.032245 31575 net.cpp:113] Memory required for data: 371934720
I1008 20:44:49.032253 31575 net.cpp:67] Creating Layer fc4
I1008 20:44:49.032255 31575 net.cpp:394] fc4 <- conv3
I1008 20:44:49.032263 31575 net.cpp:356] fc4 -> fc4
I1008 20:44:49.032271 31575 net.cpp:96] Setting up fc4
I1008 20:44:50.292733 31575 net.cpp:103] Top shape: 128 1024 1 1 (131072)
I1008 20:44:50.292762 31575 net.cpp:113] Memory required for data: 372459008
I1008 20:44:50.292784 31575 net.cpp:67] Creating Layer relu4
I1008 20:44:50.292791 31575 net.cpp:394] relu4 <- fc4
I1008 20:44:50.292812 31575 net.cpp:345] relu4 -> fc4 (in-place)
I1008 20:44:50.292821 31575 net.cpp:96] Setting up relu4
I1008 20:44:50.292834 31575 net.cpp:103] Top shape: 128 1024 1 1 (131072)
I1008 20:44:50.292837 31575 net.cpp:113] Memory required for data: 372983296
I1008 20:44:50.292845 31575 net.cpp:67] Creating Layer drop4
I1008 20:44:50.292848 31575 net.cpp:394] drop4 <- fc4
I1008 20:44:50.292855 31575 net.cpp:345] drop4 -> fc4 (in-place)
I1008 20:44:50.292862 31575 net.cpp:96] Setting up drop4
I1008 20:44:50.292867 31575 net.cpp:103] Top shape: 128 1024 1 1 (131072)
I1008 20:44:50.292870 31575 net.cpp:113] Memory required for data: 373507584
I1008 20:44:50.292878 31575 net.cpp:67] Creating Layer fc5
I1008 20:44:50.292886 31575 net.cpp:394] fc5 <- fc4
I1008 20:44:50.292896 31575 net.cpp:356] fc5 -> fc5
I1008 20:44:50.292906 31575 net.cpp:96] Setting up fc5
I1008 20:44:50.293097 31575 net.cpp:103] Top shape: 128 1 1 1 (128)
I1008 20:44:50.293102 31575 net.cpp:113] Memory required for data: 373508096
I1008 20:44:50.293126 31575 net.cpp:67] Creating Layer loss
I1008 20:44:50.293131 31575 net.cpp:394] loss <- fc5
I1008 20:44:50.293154 31575 net.cpp:394] loss <- label
I1008 20:44:50.293169 31575 net.cpp:356] loss -> loss
I1008 20:44:50.293179 31575 net.cpp:96] Setting up loss
I1008 20:44:50.293185 31575 net.cpp:103] Top shape: 1 1 1 1 (1)
I1008 20:44:50.293189 31575 net.cpp:109]     with loss weight 1
I1008 20:44:50.293203 31575 net.cpp:113] Memory required for data: 373508100
I1008 20:44:50.293207 31575 net.cpp:170] loss needs backward computation.
I1008 20:44:50.293211 31575 net.cpp:170] fc5 needs backward computation.
I1008 20:44:50.293215 31575 net.cpp:170] drop4 needs backward computation.
I1008 20:44:50.293218 31575 net.cpp:170] relu4 needs backward computation.
…
