…
I1012 23:30:23.332857 32408 solver.cpp:67] Creating training net from net file: .arch_train_val_split.prototxt
I1012 23:30:23.333305 32408 net.cpp:39] Initializing net from parameters: 
name: "CaffeNet"
layers {
  top: "data"
  top: "label"
  name: "data"
  type: DATUM_DATA
  include {
    phase: TRAIN
  }
  transform_param {
    mirror: true
    crop_size: 41
    rotate: true
  }
  datum_data_param {
    source: "/home/lein/sar_dnn/dataset/beaufort_2010_2011/batches_45/batch/train_source.txt"
    mean_file: "/home/lein/sar_dnn/dataset/beaufort_2010_2011/batches_45/mean_std.txt"
    batch_size: 128
    shuffle: true
    label_scale: 0.1
    binary_label: 0
  }
}
layers {
  bottom: "data"
  top: "conv1_1"
  name: "conv1_1"
  type: CONVOLUTION
  blobs_lr: 1
  blobs_lr: 2
  weight_decay: 1
  weight_decay: 0
  convolution_param {
    num_output: 64
    kernel_size: 5
    weight_filler {
      type: "uniform"
      min: 0.01
      max: 0.01
    }
    bias_filler {
      type: "constant"
      value: 0
    }
  }
}
layers {
  bottom: "conv1_1"
  top: "conv1_1"
  name: "relu1_1"
  type: RELU
}
layers {
  bottom: "conv1_1"
  top: "pool1_1"
  name: "pool1_1"
  type: POOLING
  pooling_param {
    pool: MAX
    kernel_size: 2
    stride: 2
  }
}
layers {
  bottom: "pool1_1"
  top: "conv1_2"
  name: "conv1_2"
  type: CONVOLUTION
  blobs_lr: 1
  blobs_lr: 2
  weight_decay: 1
  weight_decay: 0
  convolution_param {
    num_output: 128
    kernel_size: 5
    weight_filler {
      type: "uniform"
      min: 0.01
      max: 0.01
    }
    bias_filler {
      type: "constant"
      value: 0
    }
  }
}
layers {
  bottom: "conv1_2"
  top: "conv1_2"
  name: "relu1_2"
  type: RELU
}
layers {
  bottom: "conv1_2"
  top: "pool1_2"
  name: "pool1_2"
  type: POOLING
  pooling_param {
    pool: MAX
    kernel_size: 2
    stride: 2
  }
}
layers {
  bottom: "conv1_2"
  top: "conv1_3"
  name: "conv1_3"
  type: CONVOLUTION
  blobs_lr: 1
  blobs_lr: 2
  weight_decay: 1
  weight_decay: 0
  convolution_param {
    num_output: 128
    kernel_size: 5
    weight_filler {
      type: "uniform"
      min: 0.01
      max: 0.01
    }
    bias_filler {
      type: "constant"
      value: 0
    }
  }
}
layers {
  bottom: "conv1_3"
  top: "conv1_3"
  name: "relu1_3"
  type: RELU
}
layers {
  bottom: "conv1_3"
  top: "fc4"
  name: "fc4"
  type: CONVOLUTION
  blobs_lr: 1
  blobs_lr: 2
  weight_decay: 1
  weight_decay: 0
  convolution_param {
    num_output: 1024
    kernel_size: 11
    weight_filler {
      type: "gaussian"
      std: 0.0005
    }
    bias_filler {
      type: "constant"
      value: 1
    }
  }
}
layers {
  bottom: "fc4"
  top: "fc4"
  name: "relu4"
  type: RELU
}
layers {
  bottom: "fc4"
  top: "fc5"
  name: "fc5"
  type: CONVOLUTION
  blobs_lr: 1
  blobs_lr: 2
  weight_decay: 1
  weight_decay: 0
  convolution_param {
    num_output: 2
    kernel_size: 1
    weight_filler {
      type: "gaussian"
      std: 0.0005
    }
    bias_filler {
      type: "constant"
      value: 1
    }
  }
}
layers {
  bottom: "fc5"
  bottom: "label"
  top: "loss"
  name: "loss"
  type: SOFTMAX_LOSS
}
state {
  phase: TRAIN
}
I1012 23:30:23.333434 32408 net.cpp:56] Memory required for data: 0
I1012 23:30:23.333478 32408 net.cpp:67] Creating Layer data
I1012 23:30:23.333495 32408 net.cpp:356] data -> data
I1012 23:30:23.333526 32408 net.cpp:356] data -> label
I1012 23:30:23.333536 32408 net.cpp:96] Setting up data
I1012 23:30:23.333544 32408 datum_data_layer.cpp:46] Opening file /home/lein/sar_dnn/dataset/beaufort_2010_2011/batches_45/batch/train_source.txt
I1012 23:30:23.333605 32408 datum_data_layer.cpp:58] Shuffling data
I1012 23:30:23.333632 32408 datum_data_layer.cpp:63] A total of 13 images.
E1012 23:30:23.333637 32408 datum_data_layer.cpp:127] /home/lein/sar_dnn/dataset/beaufort_2010_2011/batches_45/batch/20110720.batch : 0
E1012 23:30:23.341794 32408 datum_data_layer.cpp:127] /home/lein/sar_dnn/dataset/beaufort_2010_2011/batches_45/batch/20101006.batch : 1
I1012 23:30:23.380539 32408 datum_data_layer.cpp:85] output data size: 128,2,41,41
E1012 23:30:23.380628 32408 datum_data_layer.cpp:104] channel 0 : mean 54.31 std 26.24
E1012 23:30:23.380663 32408 datum_data_layer.cpp:104] channel 1 : mean 29.85 std 4.18
I1012 23:30:23.381124 32408 base_data_layer.cpp:64] Initializing prefetch
I1012 23:30:23.382295 32408 base_data_layer.cpp:66] Prefetch initialized.
I1012 23:30:23.382325 32408 net.cpp:103] Top shape: 128 2 41 41 (430336)
I1012 23:30:23.382339 32408 net.cpp:103] Top shape: 128 1 1 1 (128)
I1012 23:30:23.382346 32408 net.cpp:113] Memory required for data: 1721856
I1012 23:30:23.382385 32408 net.cpp:67] Creating Layer conv1_1
I1012 23:30:23.382406 32408 net.cpp:394] conv1_1 <- data
I1012 23:30:23.382426 32408 net.cpp:356] conv1_1 -> conv1_1
I1012 23:30:23.382441 32408 net.cpp:96] Setting up conv1_1
[New Thread 0x7fffea5a1700 (LWP 32412)]
[New Thread 0x7fffe2bff700 (LWP 32413)]
[New Thread 0x7fffe1be8700 (LWP 32414)]
I1012 23:30:23.389173 32408 net.cpp:103] Top shape: 128 64 37 37 (11214848)
I1012 23:30:23.393172 32408 net.cpp:113] Memory required for data: 46581248
I1012 23:30:23.393235 32408 net.cpp:67] Creating Layer relu1_1
I1012 23:30:23.393259 32408 net.cpp:394] relu1_1 <- conv1_1
I1012 23:30:23.393273 32408 net.cpp:345] relu1_1 -> conv1_1 (in-place)
I1012 23:30:23.393282 32408 net.cpp:96] Setting up relu1_1
I1012 23:30:23.393287 32408 net.cpp:103] Top shape: 128 64 37 37 (11214848)
I1012 23:30:23.393290 32408 net.cpp:113] Memory required for data: 91440640
I1012 23:30:23.393301 32408 net.cpp:67] Creating Layer pool1_1
I1012 23:30:23.393307 32408 net.cpp:394] pool1_1 <- conv1_1
I1012 23:30:23.393316 32408 net.cpp:356] pool1_1 -> pool1_1
I1012 23:30:23.393324 32408 net.cpp:96] Setting up pool1_1
I1012 23:30:23.393337 32408 net.cpp:103] Top shape: 128 64 19 19 (2957312)
I1012 23:30:23.393342 32408 net.cpp:113] Memory required for data: 103269888
I1012 23:30:23.393352 32408 net.cpp:67] Creating Layer conv1_2
I1012 23:30:23.393358 32408 net.cpp:394] conv1_2 <- pool1_1
I1012 23:30:23.393370 32408 net.cpp:356] conv1_2 -> conv1_2
I1012 23:30:23.393383 32408 net.cpp:96] Setting up conv1_2
I1012 23:30:23.426571 32408 net.cpp:103] Top shape: 128 128 15 15 (3686400)
I1012 23:30:23.426604 32408 net.cpp:113] Memory required for data: 118015488
I1012 23:30:23.426640 32408 net.cpp:67] Creating Layer relu1_2
I1012 23:30:23.426650 32408 net.cpp:394] relu1_2 <- conv1_2
I1012 23:30:23.426671 32408 net.cpp:345] relu1_2 -> conv1_2 (in-place)
I1012 23:30:23.426681 32408 net.cpp:96] Setting up relu1_2
I1012 23:30:23.426686 32408 net.cpp:103] Top shape: 128 128 15 15 (3686400)
I1012 23:30:23.426688 32408 net.cpp:113] Memory required for data: 132761088
I1012 23:30:23.426694 32408 net.cpp:67] Creating Layer conv1_2_relu1_2_0_split
I1012 23:30:23.426697 32408 net.cpp:394] conv1_2_relu1_2_0_split <- conv1_2
I1012 23:30:23.426705 32408 net.cpp:356] conv1_2_relu1_2_0_split -> conv1_2_relu1_2_0_split_0
I1012 23:30:23.426714 32408 net.cpp:356] conv1_2_relu1_2_0_split -> conv1_2_relu1_2_0_split_1
I1012 23:30:23.426723 32408 net.cpp:96] Setting up conv1_2_relu1_2_0_split
I1012 23:30:23.426728 32408 net.cpp:103] Top shape: 128 128 15 15 (3686400)
I1012 23:30:23.426731 32408 net.cpp:103] Top shape: 128 128 15 15 (3686400)
I1012 23:30:23.426734 32408 net.cpp:113] Memory required for data: 162252288
I1012 23:30:23.426743 32408 net.cpp:67] Creating Layer pool1_2
I1012 23:30:23.426745 32408 net.cpp:394] pool1_2 <- conv1_2_relu1_2_0_split_0
I1012 23:30:23.426753 32408 net.cpp:356] pool1_2 -> pool1_2
I1012 23:30:23.426760 32408 net.cpp:96] Setting up pool1_2
I1012 23:30:23.426767 32408 net.cpp:103] Top shape: 128 128 8 8 (1048576)
I1012 23:30:23.426771 32408 net.cpp:113] Memory required for data: 166446592
I1012 23:30:23.426782 32408 net.cpp:67] Creating Layer conv1_3
I1012 23:30:23.426790 32408 net.cpp:394] conv1_3 <- conv1_2_relu1_2_0_split_1
I1012 23:30:23.426800 32408 net.cpp:356] conv1_3 -> conv1_3
I1012 23:30:23.426812 32408 net.cpp:96] Setting up conv1_3
I1012 23:30:23.481482 32408 net.cpp:103] Top shape: 128 128 11 11 (1982464)
I1012 23:30:23.481503 32408 net.cpp:113] Memory required for data: 174376448
I1012 23:30:23.481539 32408 net.cpp:67] Creating Layer relu1_3
I1012 23:30:23.481554 32408 net.cpp:394] relu1_3 <- conv1_3
I1012 23:30:23.481565 32408 net.cpp:345] relu1_3 -> conv1_3 (in-place)
I1012 23:30:23.481575 32408 net.cpp:96] Setting up relu1_3
I1012 23:30:23.481580 32408 net.cpp:103] Top shape: 128 128 11 11 (1982464)
I1012 23:30:23.481582 32408 net.cpp:113] Memory required for data: 182306304
I1012 23:30:23.481592 32408 net.cpp:67] Creating Layer fc4
I1012 23:30:23.481596 32408 net.cpp:394] fc4 <- conv1_3
I1012 23:30:23.481605 32408 net.cpp:356] fc4 -> fc4
I1012 23:30:23.481613 32408 net.cpp:96] Setting up fc4
I1012 23:30:25.669018 32408 net.cpp:103] Top shape: 128 1024 1 1 (131072)
I1012 23:30:25.669045 32408 net.cpp:113] Memory required for data: 182830592
I1012 23:30:25.669069 32408 net.cpp:67] Creating Layer relu4
I1012 23:30:25.669075 32408 net.cpp:394] relu4 <- fc4
I1012 23:30:25.669095 32408 net.cpp:345] relu4 -> fc4 (in-place)
I1012 23:30:25.669103 32408 net.cpp:96] Setting up relu4
I1012 23:30:25.669116 32408 net.cpp:103] Top shape: 128 1024 1 1 (131072)
I1012 23:30:25.669119 32408 net.cpp:113] Memory required for data: 183354880
I1012 23:30:25.669128 32408 net.cpp:67] Creating Layer fc5
I1012 23:30:25.669132 32408 net.cpp:394] fc5 <- fc4
I1012 23:30:25.669142 32408 net.cpp:356] fc5 -> fc5
I1012 23:30:25.669149 32408 net.cpp:96] Setting up fc5
I1012 23:30:25.669494 32408 net.cpp:103] Top shape: 128 2 1 1 (256)
I1012 23:30:25.669500 32408 net.cpp:113] Memory required for data: 183355904
I1012 23:30:25.669524 32408 net.cpp:67] Creating Layer loss
I1012 23:30:25.669528 32408 net.cpp:394] loss <- fc5
I1012 23:30:25.669543 32408 net.cpp:394] loss <- label
I1012 23:30:25.669550 32408 net.cpp:356] loss -> loss
I1012 23:30:25.669559 32408 net.cpp:96] Setting up loss
I1012 23:30:25.669569 32408 net.cpp:103] Top shape: 1 1 1 1 (1)
I1012 23:30:25.669571 32408 net.cpp:109]     with loss weight 1
I1012 23:30:25.669585 32408 net.cpp:113] Memory required for data: 183355908
I1012 23:30:25.669589 32408 net.cpp:170] loss needs backward computation.
I1012 23:30:25.669594 32408 net.cpp:170] fc5 needs backward computation.
I1012 23:30:25.669596 32408 net.cpp:170] relu4 needs backward computation.
I1012 23:30:25.669600 32408 net.cpp:170] fc4 needs backward computation.
…
