…
  phase: TRAIN
}
layer {
  name: "data"
  type: "DatumData"
  top: "data"
  top: "label"
  include {
    phase: TRAIN
  }
  transform_param {
    mirror: true
    crop_size: 41
    mean_value_file: "/home/lein/sar_dnn/dataset/beaufort_2010_2011/batches_45/mean_std.txt"
    rotate: true
  }
  datum_data_param {
    source: "/home/lein/sar_dnn/dataset/beaufort_2010_2011/batches_45/batch/train_source.txt"
    mean_file: "/home/lein/sar_dnn/dataset/beaufort_2010_2011/batches_45/mean_std.txt"
    batch_size: 128
    shuffle: true
    label_scale: 0.1
  }
}
layer {
  name: "conv1"
  type: "Convolution"
  bottom: "data"
  top: "conv1"
  param {
    lr_mult: 1
    decay_mult: 1
  }
  param {
    lr_mult: 2
    decay_mult: 0
  }
  convolution_param {
    num_output: 64
    kernel_size: 5
    weight_filler {
      type: "uniform"
      min: -0.05
      max: 0.05
    }
    bias_filler {
      type: "constant"
      value: 0
    }
  }
}
layer {
  name: "relu1"
  type: "ReLU"
  bottom: "conv1"
  top: "conv1"
}
layer {
  name: "pool1"
  type: "Pooling"
  bottom: "conv1"
  top: "pool1"
  pooling_param {
    pool: MAX
    kernel_size: 2
    stride: 2
  }
}
layer {
  name: "conv2"
  type: "Convolution"
  bottom: "pool1"
  top: "conv2"
  param {
    lr_mult: 1
    decay_mult: 1
  }
  param {
    lr_mult: 2
    decay_mult: 0
  }
  convolution_param {
    num_output: 128
    kernel_size: 5
    weight_filler {
      type: "uniform"
      min: -0.05
      max: 0.05
    }
    bias_filler {
      type: "constant"
      value: 0
    }
  }
}
layer {
  name: "relu2"
  type: "ReLU"
  bottom: "conv2"
  top: "conv2"
}
layer {
  name: "pool2"
  type: "Pooling"
  bottom: "conv2"
  top: "pool2"
  pooling_param {
    pool: MAX
    kernel_size: 2
    stride: 2
  }
}
layer {
  name: "conv3"
  type: "Convolution"
  bottom: "pool2"
  top: "conv3"
  param {
    lr_mult: 1
    decay_mult: 1
  }
  param {
    lr_mult: 2
    decay_mult: 0
  }
  convolution_param {
    num_output: 128
    kernel_size: 5
    weight_filler {
      type: "uniform"
      min: -0.05
      max: 0.05
    }
    bias_filler {
      type: "constant"
      value: 0
    }
  }
}
layer {
  name: "relu3"
  type: "ReLU"
  bottom: "conv3"
  top: "conv3"
}
layer {
  name: "fc4"
  type: "InnerProduct"
  bottom: "conv3"
  top: "fc4"
  param {
    lr_mult: 1
    decay_mult: 1
  }
  param {
    lr_mult: 2
    decay_mult: 0
  }
  inner_product_param {
    num_output: 2048
    weight_filler {
      type: "gaussian"
      std: 0.0005
    }
    bias_filler {
      type: "constant"
      value: 0
    }
  }
}
layer {
  name: "relu4"
  type: "ReLU"
  bottom: "fc4"
  top: "fc4"
}
layer {
  name: "fc5"
  type: "InnerProduct"
  bottom: "fc4"
  top: "fc5"
  param {
    lr_mult: 1
    decay_mult: 1
  }
  param {
    lr_mult: 2
    decay_mult: 0
  }
  inner_product_param {
    num_output: 1
    weight_filler {
      type: "gaussian"
      std: 0.0005
    }
    bias_filler {
      type: "constant"
      value: 0
    }
  }
}
layer {
  name: "loss"
  type: "EuclideanLoss"
  bottom: "fc5"
  bottom: "label"
  top: "loss"
}
I1105 19:53:51.882799 13435 net.cpp:76] Memory required for data: 0
I1105 19:53:51.882906 13435 layer_factory.hpp:76] Creating layer data
I1105 19:53:51.882985 13435 net.cpp:110] Creating Layer data
I1105 19:53:51.883003 13435 net.cpp:433] data -> data
I1105 19:53:51.883085 13435 net.cpp:433] data -> label
E1105 19:53:51.883134 13435 data_transformer.cpp:59] channel 0 : mean 54.31 std 26.24
E1105 19:53:51.883222 13435 data_transformer.cpp:59] channel 1 : mean 29.85 std 4.18
I1105 19:53:51.883258 13435 datum_data_layer.cpp:45] Opening file /home/lein/sar_dnn/dataset/beaufort_2010_2011/batches_45/batch/train_source.txt
I1105 19:53:51.883280 13435 datum_data_layer.cpp:57] Shuffling data
I1105 19:53:51.883301 13435 datum_data_layer.cpp:62] A total of 13 images.
E1105 19:53:51.883308 13435 datum_data_layer.cpp:113] /home/lein/sar_dnn/dataset/beaufort_2010_2011/batches_45/batch/20101008.batch : 0
E1105 19:53:51.889219 13435 datum_data_layer.cpp:113] /home/lein/sar_dnn/dataset/beaufort_2010_2011/batches_45/batch/20110709.batch : 1
I1105 19:53:51.921306 13435 datum_data_layer.cpp:86] output data size: 128,2,41,41
I1105 19:53:51.923512 13435 base_data_layer.cpp:66] Initializing prefetch
I1105 19:53:51.924180 13435 base_data_layer.cpp:69] Prefetch initialized.
I1105 19:53:51.924190 13435 net.cpp:155] Setting up data
I1105 19:53:51.924216 13435 net.cpp:163] Top shape: 128 2 41 41 (430336)
I1105 19:53:51.924222 13435 net.cpp:163] Top shape: 128 1 1 1 (128)
I1105 19:53:51.924226 13435 net.cpp:174] Memory required for data: 1721856
I1105 19:53:51.924243 13435 layer_factory.hpp:76] Creating layer conv1
I1105 19:53:51.924295 13435 net.cpp:110] Creating Layer conv1
I1105 19:53:51.924314 13435 net.cpp:477] conv1 <- data
I1105 19:53:51.924355 13435 net.cpp:433] conv1 -> conv1
I1105 19:53:51.925109 13435 net.cpp:155] Setting up conv1
I1105 19:53:51.925122 13435 net.cpp:163] Top shape: 128 64 37 37 (11214848)
I1105 19:53:51.925123 13435 net.cpp:174] Memory required for data: 46581248
I1105 19:53:51.925160 13435 layer_factory.hpp:76] Creating layer relu1
I1105 19:53:51.925179 13435 net.cpp:110] Creating Layer relu1
I1105 19:53:51.925184 13435 net.cpp:477] relu1 <- conv1
I1105 19:53:51.925837 13435 net.cpp:419] relu1 -> conv1 (in-place)
I1105 19:53:51.925856 13435 net.cpp:155] Setting up relu1
I1105 19:53:51.925861 13435 net.cpp:163] Top shape: 128 64 37 37 (11214848)
I1105 19:53:51.925864 13435 net.cpp:174] Memory required for data: 91440640
I1105 19:53:51.925868 13435 layer_factory.hpp:76] Creating layer pool1
[New Thread 0x7fffe95d7700 (LWP 13439)]
[New Thread 0x7fffe0bff700 (LWP 13440)]
[New Thread 0x7fffdbab7700 (LWP 13441)]
I1105 19:53:51.927157 13435 net.cpp:110] Creating Layer pool1
I1105 19:53:51.927168 13435 net.cpp:477] pool1 <- conv1
I1105 19:53:51.927183 13435 net.cpp:433] pool1 -> pool1
I1105 19:53:51.927242 13435 net.cpp:155] Setting up pool1
I1105 19:53:51.927268 13435 net.cpp:163] Top shape: 128 64 19 19 (2957312)
I1105 19:53:51.927270 13435 net.cpp:174] Memory required for data: 103269888
I1105 19:53:51.927284 13435 layer_factory.hpp:76] Creating layer conv2
I1105 19:53:51.927893 13435 net.cpp:110] Creating Layer conv2
I1105 19:53:51.927914 13435 net.cpp:477] conv2 <- pool1
I1105 19:53:51.927952 13435 net.cpp:433] conv2 -> conv2
I1105 19:53:51.942716 13435 net.cpp:155] Setting up conv2
I1105 19:53:51.942756 13435 net.cpp:163] Top shape: 128 128 15 15 (3686400)
I1105 19:53:51.942759 13435 net.cpp:174] Memory required for data: 118015488
I1105 19:53:51.942795 13435 layer_factory.hpp:76] Creating layer relu2
I1105 19:53:51.942816 13435 net.cpp:110] Creating Layer relu2
I1105 19:53:51.942834 13435 net.cpp:477] relu2 <- conv2
I1105 19:53:51.942858 13435 net.cpp:419] relu2 -> conv2 (in-place)
I1105 19:53:51.942873 13435 net.cpp:155] Setting up relu2
I1105 19:53:51.942879 13435 net.cpp:163] Top shape: 128 128 15 15 (3686400)
I1105 19:53:51.942881 13435 net.cpp:174] Memory required for data: 132761088
I1105 19:53:51.942884 13435 layer_factory.hpp:76] Creating layer pool2
I1105 19:53:51.942896 13435 net.cpp:110] Creating Layer pool2
I1105 19:53:51.942901 13435 net.cpp:477] pool2 <- conv2
I1105 19:53:51.942920 13435 net.cpp:433] pool2 -> pool2
I1105 19:53:51.942975 13435 net.cpp:155] Setting up pool2
I1105 19:53:51.942982 13435 net.cpp:163] Top shape: 128 128 8 8 (1048576)
I1105 19:53:51.942984 13435 net.cpp:174] Memory required for data: 136955392
I1105 19:53:51.942988 13435 layer_factory.hpp:76] Creating layer conv3
I1105 19:53:51.943022 13435 net.cpp:110] Creating Layer conv3
I1105 19:53:51.943028 13435 net.cpp:477] conv3 <- pool2
I1105 19:53:51.943043 13435 net.cpp:433] conv3 -> conv3
I1105 19:53:51.979436 13435 net.cpp:155] Setting up conv3
I1105 19:53:51.979473 13435 net.cpp:163] Top shape: 128 128 4 4 (262144)
I1105 19:53:51.979476 13435 net.cpp:174] Memory required for data: 138003968
I1105 19:53:51.979521 13435 layer_factory.hpp:76] Creating layer relu3
I1105 19:53:51.979569 13435 net.cpp:110] Creating Layer relu3
I1105 19:53:51.979578 13435 net.cpp:477] relu3 <- conv3
I1105 19:53:51.979591 13435 net.cpp:419] relu3 -> conv3 (in-place)
I1105 19:53:51.979605 13435 net.cpp:155] Setting up relu3
I1105 19:53:51.979610 13435 net.cpp:163] Top shape: 128 128 4 4 (262144)
I1105 19:53:51.979612 13435 net.cpp:174] Memory required for data: 139052544
I1105 19:53:51.979615 13435 layer_factory.hpp:76] Creating layer fc4
I1105 19:53:51.979635 13435 net.cpp:110] Creating Layer fc4
I1105 19:53:51.979640 13435 net.cpp:477] fc4 <- conv3
I1105 19:53:51.979653 13435 net.cpp:433] fc4 -> fc4
I1105 19:53:52.539885 13435 net.cpp:155] Setting up fc4
I1105 19:53:52.539911 13435 net.cpp:163] Top shape: 128 2048 (262144)
I1105 19:53:52.539913 13435 net.cpp:174] Memory required for data: 140101120
I1105 19:53:52.539932 13435 layer_factory.hpp:76] Creating layer relu4
I1105 19:53:52.539976 13435 net.cpp:110] Creating Layer relu4
I1105 19:53:52.539995 13435 net.cpp:477] relu4 <- fc4
I1105 19:53:52.540014 13435 net.cpp:419] relu4 -> fc4 (in-place)
I1105 19:53:52.540029 13435 net.cpp:155] Setting up relu4
I1105 19:53:52.540033 13435 net.cpp:163] Top shape: 128 2048 (262144)
I1105 19:53:52.540035 13435 net.cpp:174] Memory required for data: 141149696
I1105 19:53:52.540038 13435 layer_factory.hpp:76] Creating layer fc5
I1105 19:53:52.540051 13435 net.cpp:110] Creating Layer fc5
I1105 19:53:52.540056 13435 net.cpp:477] fc5 <- fc4
I1105 19:53:52.540087 13435 net.cpp:433] fc5 -> fc5
I1105 19:53:52.540455 13435 net.cpp:155] Setting up fc5
I1105 19:53:52.540464 13435 net.cpp:163] Top shape: 128 1 (128)
I1105 19:53:52.540467 13435 net.cpp:174] Memory required for data: 141150208
I1105 19:53:52.540482 13435 layer_factory.hpp:76] Creating layer loss
I1105 19:53:52.540519 13435 net.cpp:110] Creating Layer loss
I1105 19:53:52.540524 13435 net.cpp:477] loss <- fc5
I1105 19:53:52.540541 13435 net.cpp:477] loss <- label
I1105 19:53:52.540550 13435 net.cpp:433] loss -> loss
I1105 19:53:52.540594 13435 net.cpp:155] Setting up loss
…
